CNN_MNIST.pth (torch, 117719 bytes, 6 tensors)

conv1.0.weight f4 [16, 1, 5, 5]
00000000: 7223 9c3e e6de a23d 09b0 ba3e 340b b93e
00000010: 9a86 523e 6d5d 5d3e c925 b33d 1b9d 823d
00000020: 3f21 e23e 35c4 d23e b3ab 083c 4de8 853e
00000030: c23e 1bbd 54d3 c4bd f20b 0a3d acca 91be
00000040: 9989 32be 14aa 89be 6c98 96be 3bea 76be
00000050: 0e79 073d ce95 8ebe b509 06bf 7f0b ecbe
00000060: f9cf 82be 7c8b 6a3d 1af9 96be 567b d3be
00000070: 4486 98be 9998 76be 7fc4 15bd 54ec aabd
00000080: e635 87be 819d 9fbe 54aa 88be b2b6 2d3e
00000090: 9e11 b13d df2b ddbc 2e50 873d 5c3f b0ba
000000a0: 4fd5 283e caf6 3f3e 4975 543e bea6 b43e
000000b0: fa48 2e3e 3ac6 6a3e 3cc3 1e3e c57b 803e
000000c0: c27b 033e 458c 853e 91d0 213e c5ef 1a3e
000000d0: 1dd6 09be 2813 73bd 5eb5 87bd 184b f43d
000000e0: 53f3 e0bd 63a6 103e c4c3 f5bd d399 32be
000000f0: 8965 b5bd e446 aebb 2b1b ff3c 1be6 543e
00000100: 5ec2 333d e7dc aa3d 3586 8f3d 2a75 80bd
00000110: 544a aa3d d8dd 9bbd f6a6 143e 0cdf 983d
00000120: f6f1 36be 7d60 7fbb 8191 36bd c662 99be
00000130: 1b53 9bbe 04d0 9abe b319 18be da41 093e
00000140: 7c7e b5be f747 05be 5af2 28be 55d0 553e
00000150: 39a5 983e d36e a4be 01f4 33be 410e d03b
00000160: 05b5 ba3e 4d34 c53d 2270 783c 7893 6f3e
00000170: c617 e63e 678b c13e ccff 643e f7e8 ea3d
00000180: 81fe a53e 12cb a53e ba8c c3bc c9d9 68bd
00000190: d229 503d 72bd b43d 1f72 a8be 9d8e afbe
000001a0: a29c e3bc bb9f 693e 61bb 4ebd fde6 c1be
000001b0: 3b52 a6be 8756 c7bd d904 ac3d 4fdb a83e
000001c0: be56 0a3e 262a e63b 6791 debd 65dc c63d
000001d0: 972b d23e 1575 1b3e a434 973e 0dd2 543e
000001e0: f184 a6be 2084 dabd 4bc8 b3bc 101f 7b3c
000001f0: 5a71 653d 6d59 a13d c498 ff3d 1b95 79be
00000200: ec8f c53d b339 80be 6c5d b5bc a422 6b3e
00000210: 8bba 983e b188 9c3e b156 413c 83d8 babd
00000220: 291e 453e 3546 723d 3eef 1d3e a4c2 a93e
00000230: df88 9ebe 6313 59bd bedd 3bbe 9273 a4bd
00000240: 314b 48bd bf63 f9bd a051 a6be 154d 073c
00000250: abb6 61be 889e c6b9 d255 54bd d5dc 083d
00000260: 8f68 d9bd 44e6 7ebe 8d05 3dbd 2b4c 91be
00000270: d301 40be 4e04 653e 7dfe 0bbd f7fe 403e
00000280: 1387 5bbd 7101 433e 8df9 853e fdb2 023e
00000290: 5807 7ebd 53bf 213e d987 a23e 38f8 0ebe
000002a0: 49a1 7bbe 5422 d63d 49d9 0a3e f5fd d7bc
000002b0: 62b4 a6be b9bd 143d 9ab3 4b3e e263 73be
000002c0: 28f5 4abe 28d8 9f3c 138e 9ebb b7ed cc3d
000002d0: b946 e0be 837b c0be 5348 14bf 702b 70be
000002e0: a3cc 53be 7717 1fbe c1c7 d53d 1ace 21bd
000002f0: 1553 9ebe ab2c 20be 9daa 023e c74d 8f3d
00000300: a21a 69bd a9e1 243e ae4b 60bd 7fd4 143e
00000310: 5654 063e 9d4a 843e 9234 813e c6bf e13c
00000320: 384d 483e ec2f 663e 4e28 9bbd 25bd d0be
00000330: 6289 a2be 2913 ba3e dfbc 073e a311 a5be
00000340: 81cd cdbe e821 43be f623 c43e 81c8 e8bc
00000350: 522a 11be c2b8 66be 40e5 8cbe f0d9 1fbd
00000360: 86bc 963d 237f 5b3d a4d1 1c3e 208d 893e
00000370: ae24 8dbc d087 e93d 4fc9 8ebd 083b 913e
00000380: 799a b93e 3ae8 5abe ad72 8b3e 8c9c 653e
00000390: b225 1abe 6c2e 693e 5218 57be cce6 573e
000003a0: d610 bc3d 2cbb 6dbc 64d3 553e e64b a23d
000003b0: c1da 3dbe c676 c3bd 09ee e03d ba77 353d
000003c0: 37c6 a4be 4f0e e2bd b5f4 24bd 4170 603e
000003d0: d711 773e 60ae 2ebe 67da d2b9 f663 fbbc
000003e0: 20e7 353d 294f e2bc b11f 23bd 5725 073e
000003f0: cedd f3bd a5bf 9dbb 40e0 79be ea1a 313e
0.30495793 0.07952671 0.3646243 0.3614136 0.20559159 0.2161767 0.08747441 0.06377622
0.4416599 0.4116532 0.0083417175 0.26153794 -0.037901647 -0.0961062 0.0337028 -0.2847494
-0.17435302 -0.26887572 -0.29413164 -0.2411279 0.03307443 -0.27848667 -0.5235856 -0.4610252
-0.25549296 0.05726193 -0.29486924 -0.41305035 -0.29789937 -0.24081649 -0.036564346 -0.08345857
-0.2640831 -0.31174853 -0.2669245 0.16964224 0.08645938 -0.026998458 0.0660709 -0.0013446617
0.16487621 0.18746486 0.20747866 0.35283464 0.17020026 0.2292718 0.15504164 0.2509443
0.12840179 0.2608358 0.15802218 0.15130527 -0.13460584 -0.05934444 -0.0662639 0.119283855
-0.109839104 0.14125971 -0.1200023 -0.17441492 -0.08857257 -0.0053185094 0.031140884 0.20790903
0.043886535 0.08342915 0.0700802 -0.06272347 0.08314958 -0.07610673 0.14516816 0.07464418
-0.17865738 -0.0038967424 -0.044572357 -0.2995817 -0.30336842 -0.30236828 -0.14853553 0.13404027
-0.35448062 -0.13015734 -0.164987 0.20880254 0.29813555 -0.32115802 -0.17573549 0.0063493554
0.36466232 0.09629116 0.015163453 0.23396099 0.44940013 0.37801668 0.22363204 0.11470216
0.32420734 0.32381493 -0.023870815 -0.05684832 0.050821133 0.08825196 -0.32899567 -0.34288493
-0.02778465 0.22814839 -0.050471667 -0.37871543 -0.32484612 -0.09733301 0.08399362 0.3297982
0.13509652 0.0070240675 -0.10867577 0.09710006 0.4104888 0.15181382 0.2953235 0.20783253
-0.325233 -0.10669732 -0.021946093 0.01532723 0.056016304 0.07878385 0.124803096 -0.24373285
0.096465915 -0.2504402 -0.022139274 0.22962433 0.2982982 0.30573037 0.011800454 -0.091233276
0.19249786 0.059148986 0.15423295 0.33156312 -0.309638 -0.052997004 -0.18346307 -0.08029856
-0.048899833 -0.12177228 -0.3248415 0.008258124 -0.22042339 -0.00037883618 -0.051839657 0.033413727
-0.10615646 -0.24892527 -0.04614787 -0.28378424 -0.18750696 0.22364923 -0.034178246 0.18847261
-0.053595614 0.19043519 0.26166955 0.12763591 -0.062018722 0.1579564 0.3174427 -0.13961875
-0.24573244 0.10455766 0.1355945 -0.026366213 -0.32559496 0.036313746 0.19892731 -0.23768571
-0.19820082 0.019512251 -0.004838714 0.10006278 -0.43803957 -0.37594232 -0.5792286 -0.2345407
-0.20683531 -0.15536295 0.10438491 -0.039503194 -0.30922762 -0.1564204 0.12760396 0.06997257
-0.056910165 0.16101708 -0.054759674 0.14534186 0.13118109 0.25838175 0.2523542 0.027557265
0.19560707 0.22479218 -0.07576047 -0.40769306 -0.3174544 0.36342743 0.13255642 -0.32240018
-0.4019585 -0.19055903 0.38308686 -0.02841592 -0.141763 -0.22531417 -0.27518654 -0.0390262
0.07360177 0.053588044 0.15314347 0.26865482 -0.017229404 0.11402857 -0.0697199 0.2836535
0.36250666 -0.2137765 0.27235928 0.22422999 -0.15053442 0.22771615 -0.21005371 0.21084136
0.09182899 -0.014509957 0.2088142 0.07924633 -0.18540479 -0.095441386 0.109829016 0.044303633
-0.32182476 -0.110378854 -0.040272433 0.21917821 0.24127899 -0.17058706 -0.00040217044 -0.030687314
0.04440987 -0.027625637 -0.039825145 0.13197838 -0.1190754 -0.0048141056 -0.24401951 0.17295423

conv1.0.bias f4 [16]
00000000: 2209 833d 38e9 a13d 292d 3fbd ae14 d1bd
00000010: 7cea 8bbc b194 9b3b 066a 19bd 455f 073e
00000020: 4b3c 3abc 52b2 aebd 6d35 58bc adf9 293e
00000030: 6feb 133d 7f70 7fbc 92b6 05be fbd2 02be
0.06398226 0.07905811 -0.046673927 -0.102090225 -0.017079584 0.00474795 -0.037454627 0.13219936
-0.011366914 -0.08530106 -0.013196331 0.1659915 0.0361132 -0.015590786 -0.13057926 -0.12775795

conv2.0.weight f4 [32, 16, 5, 5]
00000000: 0d2d 173e 5f9a 433d 1898 b5b8 eff5 1bbe
00000010: a0c9 2dbe 8838 8c3d 21fe abbc 7642 df3d
00000020: f672 95bd 958c 17be c82d 33be 13f9 c6bd
00000030: 930b f8bd 6c01 15be 73bb 61be d855 8fba
00000040: 39ce 043e bcba 6e3d 8460 a2bd 04ba 5dbd
00000050: ebb4 f53d 935d 393d 0ea6 0abe 8600 c1bd
00000060: cfbd 4a3d 02b3 f0bd ac3a 3cbe dd20 09be
00000070: a745 b1bd 3955 05ba 8e23 433b dcf2 443d
00000080: 7eb4 a03c 5690 d8bd 6040 453b 9799 433d
00000090: a0bd ee3d fcbb 903d 2f78 91bd 27d4 76bd
000000a0: 0cda 743d cf64 263d c2cf ccbd 0100 d5bd
000000b0: 388c 4ebd fb41 85bd b20f 02bc 70e9 a33d
000000c0: 687f cd3c ce77 5cbe b276 25bd 6577 f1bd
000000d0: 329c c03c 89ee bf3c 9187 233c 45b8 16be
000000e0: d862 bbbc 89e5 afbd 305a acba 3d5a 2d3d
000000f0: 92c8 f2bd 3608 01bd 7243 8d3c b975 50bd
00000100: 4226 a83d a4d0 323d 74a6 58bc 120a 62bd
00000110: dd0e acbd 27ed b83d 6be5 8dba 6bf5 043d
00000120: 2bc0 573d 1d7d 3e3d 9add a13d db2c 57be
00000130: 6669 25be 16e6 70bc 8d9b 313c d4cf a0bd
00000140: 6eed 8bbc 3e58 d3bd c803 1bbd aab0 20ba
00000150: a38e e5bc 1b84 1d3d 3b72 c33d 3b22 683d
00000160: 013e cf3c 51e2 55bb 11ed f43d 4dff ea3d
00000170: 4b91 70bd de40 883d 7a60 073a 7f3f 843c
00000180: 27a3 30bc 8399 2e3e 8d35 473e b53d a13d
00000190: f2cf 423d 9438 98bd 036d 9d3a e559 36bd
000001a0: 3e26 fa3d 2a40 4cbd 54de 5eb8 26a1 81bd
000001b0: 3f4f 52bd 52b6 763d 519e f7bc c5e9 a33d
000001c0: 766a 823d deb2 d6bd 3247 973c fe46 663c
000001d0: 8268 bebc f1df af3c b5c6 0abe d93d cebd
000001e0: 7252 34bd 5994 9bbd 6c5d b03d a331 10be
000001f0: bd90 38be 9b7e 903d d8be 8e3c 7847 dfba
00000200: 5dcc 6d3d 873b e6bc 6518 ccbd ffe3 99bd
00000210: fe38 733d ed66 e13d ec28 9c3d 628d 01be
00000220: 9fd8 ecbd 1ac8 86bd 004c f1bb 1512 4e3d
00000230: 9419 cc3b 820a c83d 88c1 a13c 54da 0c3d
00000240: fe4b 70bb 5c85 92bc 4174 58bd d737 b2bd
00000250: 050f 41bd 7ba0 47bc e547 bfbd cf37 3bbe
00000260: 7e1d 0cbe a859 9bbc 18e1 a43c 108f f6bd
00000270: 26e9 1fbe 82d0 42bd 85a7 7bbc 27d1 04bc
00000280: db8f eb3b ab21 ffbc 6d69 fc3d 2977 a43d
00000290: 8e4e e53c 4a0e aa3d b76a 8f3d f2a7 ca3d
000002a0: b8b4 953b 6a9f d93c 8de5 943d 8fe2 1fbb
000002b0: b151 88bc 3f0b 373e 33fb 0d3e 707b 20bd
000002c0: 3737 90bd f7d2 cfbd f759 43be 0016 dbbd
000002d0: 1e85 513d b2c6 3e3d 7d99 473d c122 f3bd
000002e0: 89bf e4bd 7533 9a3d 3c12 ef3d 43d4 073e
000002f0: 711b 89bd 5e4e 8fbd b9b5 d33c f068 8cbd
00000300: 16f9 e5bc 2eae 4ebc e140 6dbd faef aebb
00000310: 62fa 8fbd e643 e73b 60d7 26bd d4cf 37be
00000320: 6fa3 123d e9e9 e4bd 943f a9bd 879b 223b
00000330: 2ed0 e93d 4219 e8bd 1548 863d 6e4e 8fbc
00000340: 964f 04be b650 463d 9e22 c9bc ed88 c13a
00000350: acf2 81bd 4478 1ebe 5f07 83bc f4e1 eabc
00000360: 01fd e8bd 9d5a 25bd 44b0 a7bd e5c9 19be
00000370: 7467 aebc af03 0e3e 3ae8 4e3d fbef 48be
00000380: 5faa 3fbe 60be de3d 373b b2bc 4af6 573d
00000390: 388a 483d ac7b 63b8 96e0 babd 1ed6 b5bd
000003a0: 5378 803d 4121 ba3d 6179 4e3c 9a17 283b
000003b0: d013 b23c 9800 62bd f112 a23d 9ff3 0f3e
000003c0: 5ee9 433d 3621 69bd 768a e03c d7c7 353d
000003d0: 58f9 c63d 50d5 57bd 33f5 42bd 2459 513d
000003e0: e356 9c3d 74f5 1b3c a5d2 32be 88dd 1dbe
000003f0: c335 03be 77a3 dbbd fb05 d33d 9f34 08be
0.1476328 0.04775464 -8.659082e-05 -0.15230535 -0.16971445 0.0684672 -0.020995202 0.10901348
-0.07297318 -0.14799722 -0.17497933 -0.09715476 -0.121115826 -0.14551324 -0.22044162 -0.0010935618
0.12969293 0.058283553 -0.07928565 -0.054132476 0.11997398 0.045255255 -0.13539907 -0.09423928
0.04949742 -0.11752893 -0.18381757 -0.13391443 -0.08655863 -0.00050862465 0.002977583 0.04808317
0.019617315 -0.10574405 0.0030098185 0.047753897 0.11657262 0.07067105 -0.07103001 -0.060260918
0.05977826 0.040623482 -0.10000564 -0.10400391 -0.05042669 -0.065067254 -0.007938312 0.08003509
0.025085166 -0.21530077 -0.0403964 -0.11790351 0.02351198 0.023429172 0.009981052 -0.14718731
-0.02287428 -0.08588702 -0.0013149437 0.042322386 -0.11854662 -0.03150197 0.017244074 -0.05089352
0.08210422 0.043656006 -0.013223279 -0.055185385 -0.084012724 0.09029608 -0.0010825818 0.03246061
0.0526735 0.046506036 0.07903595 -0.21013205 -0.16153488 -0.014703294 0.010840309 -0.0785214
-0.017080989 -0.10319565 -0.037845403 -0.00061298406 -0.028022116 0.038456064 0.09543272 0.05667327
0.02529812 -0.0032636116 0.11959279 0.11474476 -0.058732312 0.066529974 0.00051642174 0.016143559
-0.010781086 0.17050748 0.19454022 0.07873098 0.047561593 -0.074326664 0.0012010637 -0.044519324
0.12214325 -0.04986588 -5.3135984e-05 -0.06329565 -0.051345106 0.060232468 -0.030226858 0.080035724
0.06367962 -0.10483335 0.018466566 0.014055012 -0.023243193 0.021469088 -0.13552363 -0.1007039
-0.04402394 -0.075966544 0.08611569 -0.14081435 -0.18023963 0.07055398 0.017424986 -0.0017034849
0.058056224 -0.028104557 -0.099655904 -0.0751419 0.059380524 0.1100596 0.07624993 -0.1265159
-0.11564755 -0.06581135 -0.0073637962 0.050310213 0.006228635 0.09767629 0.019745603 0.0343879
-0.0036666389 -0.017885856 -0.052845243 -0.08702057 -0.047133464 -0.012184258 -0.09339885 -0.18283008
-0.13683125 -0.01896365 0.020126864 -0.12039006 -0.15616283 -0.04756213 -0.015359764 -0.008106506
0.00718878 -0.031143984 0.12324796 0.080305405 0.02799156 0.08303507 0.07002776 0.09895314
0.0045686625 0.026565272 0.07270346 -0.0024396514 -0.016640516 0.17875384 0.13865356 -0.03918022
-0.070417814 -0.1014766 -0.19077288 -0.106975555 0.05115234 0.04657621 0.048730362 -0.11871863
-0.11169345 0.07529346 0.116734 0.13264565 -0.06694687 -0.06997369 0.025843488 -0.06855953
-0.028072875 -0.01261477 -0.0579232 -0.005338666 -0.070301786 0.0070576547 -0.04073274 -0.17950374
0.035800394 -0.11177427 -0.0826408 0.002481194 0.1141666 -0.113329425 0.06556717 -0.017493453
-0.12920985 0.048416816 -0.02455264 0.0014765539 -0.06345114 -0.15475565 -0.015994726 -0.028672196
-0.11376382 -0.04036962 -0.08187917 -0.15018423 -0.021289565 0.13868593 0.050514437 -0.19622795
-0.18717335 0.10876155 -0.021756751 0.052725114 0.04895994 -5.4236196e-05 -0.091248676 -0.0887873
0.0627295 0.09088374 0.012602181 0.0025648833 0.021737963 -0.055176347 0.07913769 0.14057778
0.04782998 -0.056916438 0.027409773 0.044380035 0.09715527 -0.052693665 -0.04759712 0.0511104
0.0763376 0.00951897 -0.17463167 -0.15416539 -0.12813477 -0.10724538 0.10303875 -0.13301323

conv2.0.bias f4 [32]
00000000: caab abbd 12d0 e0bc 7d91 96bd d401 61bd
00000010: 5c63 4fbd f976 dabc ee40 59bb 98dc e5bc
00000020: febd 7abb 9def 90bd 010c a73c a03c 5a3c
00000030: 79c5 80bc 4369 76bc 0294 e3bc c384 d43b
00000040: 3e64 82bd f7d7 76bd 9ae2 2c3d 36ac 20bd
00000050: 7f4b 6ebc 913f b9bb 50e6 acbd 8105 0b3c
00000060: 30ff 4dba d986 e8bc e4b7 79bd 4a09 62bd
00000070: a91f 6abd 8b35 c83b c236 65bd 8fec 51bd
-0.083823755 -0.027442966 -0.073519684 -0.054933384 -0.050631866 -0.026668059 -0.0033150273 -0.028059289
-0.0038260217 -0.070769526 0.020391466 0.013320118 -0.015719162 -0.015039745 -0.027780537 0.006485553
-0.06366776 -0.060264554 0.04220829 -0.039226733 -0.014544367 -0.0056533297 -0.08442366 0.008485199
-0.00078581553 -0.028384613 -0.060966387 -0.05518464 -0.0571591 0.0061098984 -0.055960424 -0.05125099

out.weight f4 [10, 1568]
00000000: d21b bbbc 588d 1cbd 4e0b 4fbd 241e eb3c
00000010: 9ca2 9bbd 38ed a6bc 4a04 9b3c f237 a5bc
00000020: ab68 28bd d44d d13c d078 8cbc 9528 b5bc
00000030: a2f8 663c 115e 1ebc d646 9e3d ae1e b23c
00000040: 5beb 253d 9762 663c 63dc c73d 56d9 64bd
00000050: 8add d0bd 1d24 233d 9847 6bbb a0d2 833c
00000060: 3f0b 013a 3b32 a63d 011b 9e3d d6d4 a2bd
00000070: adfe ec3c 1905 0cbc 52ef f03d 2ab5 8dbd
00000080: b18c 073c 7355 2b3e 52df d1bd 89a3 7d3b
00000090: 5ac1 463c 21a9 f53d b6b2 e1bd 32fe 74bd
000000a0: 7901 d8bd 88bc 863c eeb6 373d 5434 2bbb
000000b0: 1c52 653d c91d cfbe 4d5f 91be 29c4 a7bd
000000c0: ce8f 98bc 420e babd 9a39 1fbe 718a 87bd
000000d0: 585e 82b9 489e 9c3c d80b 0fbe 5792 45be
000000e0: 1591 113d 1745 0bbd 1c65 953a 45e7 3a3d
000000f0: e81f 833d 9a3e 27bc 16ba 16be b9e0 38bd
00000100: 9563 01be 4e12 a6bd ab45 ac3d 5f1d 8e3c
00000110: 38af a13c 492f 22bd 0429 31bd 56a1 b4ba
00000120: 197b 77bd 23e3 a2bd 4295 d5bb 83a1 25bb
00000130: de5b ba3d 60ef f0bb 1d4f e43c f144 183d
00000140: 7a53 afbb 729f 09bd 43ab 2c3d 1312 e33d
00000150: 7894 663d 7356 3c3d 64ca b13c 4a83 23bb
00000160: 6e0c 5aba f8a0 5c3c 2673 20bd bc4e b9bb
00000170: 329b 0f3d 9e1f f53c 07e3 02bc f6ca 34bd
00000180: 9db4 b2bc a9c0 71bd d913 aa3d 5823 59bd
00000190: e6f0 43bc ee15 2e3d 5bab 9b3b af54 75bd
000001a0: fdad 3a3d d580 e83c d793 2a3d 9bb4 9d3d
000001b0: 17db debc ce9b b5bd d0a5 57be 248b 4ebd
000001c0: b1ed 1f3d bef2 42bd 6283 5abd e6bb 36bd
000001d0: 6afb 87bd 546d debd 5e2e 08be 779a 30be
000001e0: 8c69 35be 209d 67bd 5f1e bbbd e2cd 56bd
000001f0: 487c 02be 99d5 7ebd ad82 a1bc 3fbf fc39
00000200: 4346 3abd f3e2 edbd daa2 d13d 295d 953d
00000210: b5ea 6f3d 3d36 573d 3cd2 123d 7116 8c3c
00000220: 6bc3 5d3d fb00 6e3d d71a 0d3d 412d 0ebd
00000230: 2780 2abd 6b95 23bc 48e2 bf3a fd6c b23c
00000240: efb8 143d fd4b d6bc d34c f1bd 259b 763c
00000250: 31d3 80bc 99cb 1a3d cb03 aa3b 2432 14be
00000260: 7dcc bebd 6d2b 86bd c724 473d 6a92 ae3c
00000270: 2ce8 ccbc 4374 8bbd 0056 2dbe fd0a babd
00000280: 77c2 9f3c 101a 463c 1235 ffb9 8d8c d8ba
00000290: f676 db3d 1742 d7bd 7182 88bc 457b cd3c
000002a0: 2a69 a83a 8c23 363d 76e8 713d 9325 dc3d
000002b0: 6857 ae3d e461 1a3b 50cc 8fbc c89f 0fbd
000002c0: 1848 b43d efe6 4b3d 4778 09bd 2392 c33d
000002d0: 6f11 b33d 61da b0bd 418f 36bc 1cfd 433d
000002e0: f3bf b2bd daf2 b2bc 2509 8fbc 3707 37bd
000002f0: b285 debc 1599 e13a 6ddc 823c 8eba afbd
00000300: 7897 71bd 1b05 eebc af5f 9cbd 404d 92bd
00000310: c73a 9dbd 01f3 32be f09b 79bc 87bc ce3b
00000320: 9719 4ebd 003a b83b 6f6d 12be 246e e7bd
00000330: c1b4 3ebc 2ffe 77bb c332 9cbd d5f6 183b
00000340: ba70 883d 2e2d 41be 4376 0f3c 7b5a 4c3c
00000350: 3a2c 21bc e9dd 64bd e968 473d cb42 143d
00000360: dde7 00bc 81d1 b13c cc67 d53c 09f4 40ba
00000370: 79b5 c1bd a7c2 8b3c 9707 6a3d 0510 a0bd
00000380: bd5e 013e c0ff d23c 45e2 7b3d db2a 95bd
00000390: dccb 1fbd c404 313d 8d1e e2bc 9114 983c
000003a0: 8670 f03c 9eb1 9d3d 3a4d 7cbd a80a ffbd
000003b0: 701f 38be ea5e 01be a759 8abc cd3f 663d
000003c0: 71cb 943d 367c 8c3c 4918 b7bd 0d8a 8ebd
000003d0: 2f66 cabd 6180 15bc a9d9 01bd 45c0 bcbd
000003e0: 7c48 bc3a b011 01be d7ec 55bd 19da 65bd
000003f0: 0112 83bd 800e cabc e7ae 053d aad4 6dbd
-0.022840414 -0.038220733 -0.05054789 0.028700896 -0.07599375 -0.020376787 0.018922944 -0.020168278
-0.041115444 0.025549807 -0.017147452 -0.022114078 0.014097365 -0.009665982 0.07728355 0.021743145
0.040507656 0.014061592 0.09758832 -0.05587133 -0.10198505 0.039829362 -0.0035900827 0.016091645
0.0004922635 0.081150495 0.07719994 -0.079507515 0.028930033 -0.008546137 0.11764397 -0.0691932
0.00827329 0.16731815 -0.10247673 0.003870221 0.01213106 0.119951494 -0.110204145 -0.059812732
-0.10547156 0.01644732 0.04485219 -0.002612372 0.05598651 -0.40452412 -0.2839302 -0.081917115
-0.018623259 -0.09084751 -0.15549317 -0.066182025 -0.00024865824 0.019118443 -0.13969362 -0.19294105
0.03553875 -0.034001436 0.0011397931 0.045630712 0.0640257 -0.0102077965 -0.14719424 -0.045136187
-0.12635644 -0.0810896 0.084117256 0.01734799 0.019736871 -0.039595876 -0.043252006 -0.0013780992
-0.06042013 -0.07953479 -0.006518037 -0.002527327 0.090995535 -0.0073527545 0.027869755 0.037175123
-0.0053505274 -0.033599325 0.042155515 0.11087432 0.056293935 0.045980882 0.021702953 -0.002495008
-0.0008317892 0.013466112 -0.039172314 -0.005655138 0.035060115 0.029922303 -0.007988698 -0.04413887
-0.021814639 -0.059021626 0.08304567 -0.053012222 -0.01195929 0.042501383 0.004750652 -0.059895214
0.045576084 0.028381744 0.041644897 0.077004634 -0.02720408 -0.08867608 -0.21059346 -0.050425664
0.03904504 -0.04759478 -0.053347953 -0.044612788 -0.0663975 -0.108606964 -0.13298938 -0.17246424
-0.17716044 -0.05654633 -0.09136652 -0.05244244 -0.12742722 -0.06221542 -0.019715631 0.00048207675
-0.045477163 -0.11615553 0.102361396 0.072931595 0.058573443 0.05254196 0.035845026 0.017100545
0.054141443 0.058106404 0.034449425 -0.034711126 -0.04162612 -0.0099843545 0.0014639581 0.021780485
0.03630918 -0.02615928 -0.11782231 0.015051638 -0.015725704 0.037791822 0.0051884404 -0.14472252
-0.09316347 -0.065512516 0.048619058 0.02131005 -0.025013052 -0.068092845 -0.16927338 -0.09084127
0.019501908 0.012091175 -0.0004867693 -0.001652138 0.107160494 -0.105106525 -0.016663762 0.025083194
0.0012848724 0.044467494 0.059059583 0.10749354 0.08512765 0.0023556883 -0.017553478 -0.03506449
0.08802813 0.049780782 -0.03356197 0.09549358 0.087435596 -0.086354025 -0.011142553 0.047848806
-0.08728018 -0.021844316 -0.017460415 -0.044684615 -0.02716336 0.001721176 0.015974248 -0.08580504
-0.058982342 -0.029055169 -0.07635438 -0.071436405 -0.076772265 -0.17475511 -0.015234932 0.0063090953
-0.050317373 0.0056221485 -0.14299558 -0.113003045 -0.011639775 -0.0037840714 -0.076268695 0.0023340483
0.06662126 -0.18864891 0.008756223 0.012472744 -0.009837205 -0.055875693 0.048684034 0.03619651
-0.0078677805 0.021706345 0.02605047 -0.0007360583 -0.09458441 0.01706059 0.057136144 -0.078155555
0.12633796 0.025756717 0.061495084 -0.07283565 -0.039012775 0.043217435 -0.027602458 0.018564494
0.02935053 0.076998934 -0.061597086 -0.124532044 -0.17980742 -0.12633863 -0.016888453 0.05621319
0.07265366 0.017149072 -0.08940179 -0.06959925 -0.09882771 -0.009124846 -0.031701718 -0.0921636
0.0014364864 -0.12604403 -0.05222782 -0.056116197 -0.06399918 -0.024665117 0.032637503 -0.05806414

out.bias f4 [10]
00000000: d3bb 1b3d 3a07 0c3c 69eb b03c 4c05 4fbc
00000010: c1da 55bc 78c2 ec3b 0839 76bc 45ce a3bc
00000020: 7b2e 143c 0ea0 e43c
0.03802092 0.008546645 0.021596627 -0.01263554 -0.013052643 0.007225331 -0.015028246 -0.019995818
0.009044285 0.027908351
